…
 encoder_embed_dim=1024, encoder_ffn_embed_dim=1024, encoder_attention_heads=16, attention_dropout=0.1, act_dropout=0.1, dropout=0.1, no_seed_provided=False, activation_fn='gelu', encoder_normalize_before=True, apply_graphormer_init=False, share_encoder_input_output_embed=False, no_token_positional_embeddings=False, _name='graphormer_large')
2025-10-16 16:26:41 | INFO | fairseq_cli.train | GraphormerModel(
  (encoder): GraphormerEncoder(
    (graph_encoder): AffinCraftGraphEncoder(
      (dropout_module): FairseqDropout()
      (graph_node_feature): AffinCraftNodeFeature(
        (node_encoder): Linear(in_features=9, out_features=1024, bias=True)
        (graph_token): Embedding(1, 1024)
        (local_masif_encoder): Sequential(
          (0): Linear(in_features=80, out_features=512, bias=True)
          (1): GELU(approximate='none')
          (2): Linear(in_features=512, out_features=512, bias=True)
        )
        (global_masif_encoder): Sequential(
          (0): Linear(in_features=512, out_features=1024, bias=True)
          (1): GELU(approximate='none')
          (2): Linear(in_features=1024, out_features=1024, bias=True)
        )
        (attention_weights): Linear(in_features=512, out_features=1, bias=True)
        (gbscore_encoder): Sequential(
          (0): Linear(in_features=400, out_features=1024, bias=True)
          (1): GELU(approximate='none')
          (2): Linear(in_features=1024, out_features=1024, bias=True)
        )
        (feature_fusion): Linear(in_features=3072, out_features=1024, bias=True)
      )
      (graph_attn_bias): AffinCraftAttnBias(
        (structural_edge_encoder): Embedding(20, 16, padding_idx=0)
        (plip_intra_protein_encoder): Embedding(15, 16, padding_idx=0)
        (plip_intra_ligand_encoder): Embedding(15, 16, padding_idx=0)
        (plip_inter_molecular_encoder): Embedding(15, 16, padding_idx=0)
        (distance_encoder): Sequential(
          (0): Linear(in_features=1, out_features=16, bias=True)
          (1): ReLU()
          (2): Linear(in_features=16, out_features=16, bias=True)
        )
        (edge_location_encoder): Embedding(4, 16)
        (graph_token_virtual_distance): Embedding(1, 16)
        (angle_encoder): Sequential(
          (0): Linear(in_features=28, out_features=16, bias=True)
          (1): ReLU()
          (2): Linear(in_features=16, out_features=16, bias=True)
        )
        (multi_dist_encoder): Sequential(
          (0): Linear(in_features=28, out_features=16, bias=True)
          (1): ReLU()
          (2): Linear(in_features=16, out_features=16, bias=True)
        )
      )
      (emb_layer_norm): LayerNorm((1024,), eps=1e-05, elementwise_affine=True)
      (layers): ModuleList(
        (0-23): 24 x GraphormerGraphEncoderLayer(
          (dropout_module): FairseqDropout()
          (activation_dropout_module): FairseqDropout()
          (self_attn): MultiheadAttention(
            (dropout_module): FairseqDropout()
            (k_proj): Linear(in_features=1024, out_features=1024, bias=True)
            (v_proj): Linear(in_features=1024, out_features=1024, bias=True)
            (q_proj): Linear(in_features=1024, out_features=1024, bias=True)
            (out_proj): Linear(in_features=1024, out_features=1024, bias=True)
          )
          (self_attn_layer_norm): LayerNorm((1024,), eps=1e-05, elementwise_affine=True)
          (fc1): Linear(in_features=1024, out_features=1024, bias=True)
          (fc2): Linear(in_features=1024, out_features=1024, bias=True)
          (final_layer_norm): LayerNorm((1024,), eps=1e-05, elementwise_affine=True)
        )
      )
    )
    (masked_lm_pooler): Linear(in_features=1024, out_features=1024, bias=True)
    (lm_head_transform_weight): Linear(in_features=1024, out_features=1024, bias=True)
    (layer_norm): LayerNorm((1024,), eps=1e-05, elementwise_affine=True)
    (embed_out): Linear(in_features=1024, out_features=1, bias=False)
  )
)
2025-10-16 16:26:41 | INFO | fairseq_cli.train | task: GraphPredictionTask
2025-10-16 16:26:41 | INFO | fairseq_cli.train | model: GraphormerModel
2025-10-16 16:26:41 | INFO | fairseq_cli.train | criterion: GraphPredictionL2LossWithRMSD
2025-10-16 16:26:41 | INFO | fairseq_cli.train | num. shared model params: 159,845,714 (num. trained: 159,845,714)
…
